CDLG/best_cdg_Pubmed_tsne.pth (torch, 321703 bytes, 2 tensors)

linear.weight f4 [160, 500]
0	0xbce0dbeb	-0.027448615
1	0x3cbd3662	0.02309722
2	0xbbb1cc73	-0.0054259836
3	0x3c4cb6ba	0.012494737
4	0x3cd755cc	0.026286028
5	0x3dd8c73a	0.105848745
6	0xbd69f192	-0.057115145
7	0x3b0cb547	0.0021470354
8	0xbd8e8724	-0.0695937
9	0x3b73cfb1	0.003720265
10	0x3d8f5a08	0.06999594
11	0x3dcdbf6c	0.100462765
12	0x3c8568ff	0.016285418
13	0xbceda1a9	-0.02900775
14	0x3b70c5ed	0.0036739067
15	0xbd66e5b5	-0.05637141
16	0x3d8ac5bc	0.06775996
17	0xbd1b85b5	-0.03796931
18	0x3d4557ef	0.048179563
19	0xbc78de49	-0.015189716
20	0xbd3dc60f	-0.04633146
21	0xba7d3fb5	-0.0009660677
22	0x3ca4f0fb	0.02013444
23	0x3303cda3	3.068784e-08
24	0x34780c34	2.310124e-07
25	0xbc71d22b	-0.014759581
26	0x3c21ba63	0.009871098
27	0x3d325a68	0.04354325
28	0xbc1238de	-0.008924691
29	0xbc971c81	-0.018446209
30	0x3d917259	0.07101888
31	0x3d232bd1	0.03983671
32	0xbb9077d4	-0.004408816
33	0x3d80eaff	0.06294822
34	0x3d18b05a	0.037277557
35	0xb5e796f8	-1.7254779e-06
36	0x3bac5442	0.0052590678
37	0xbc0fb5b8	-0.0087713525
38	0x3cbe6b9f	0.023244677
39	0x3d1a0b0d	0.037608195
40	0xbcb9887a	-0.022648085
41	0x3d6a0126	0.05713
42	0x3a923659	0.0011155113
43	0xbca41a5c	-0.0200321
44	0x3d3212a6	0.043474816
45	0xbc199be5	-0.009375547
46	0xbb3e449f	-0.00290326
47	0x3c782ea9	0.015147843
48	0xbda91983	-0.08256819
49	0x3d42bcbe	0.04754328
50	0x3d749fc7	0.059722688
51	0x3cc57ff1	0.024108859
52	0x3d65a543	0.05606581
53	0xbca3cd68	-0.019995406
54	0x3cdbc237	0.026826007
55	0x3b9608c5	0.004578682
56	0x3b2bce3d	0.0026215457
57	0xbd2e24d5	-0.042515595
58	0x3daa70e0	0.083223104
59	0x3d12f2e4	0.03587617
60	0x3cfc14e2	0.030771676
61	0xbc842504	-0.016130932
62	0x3d1fcd57	0.039014187
63	0xbcc5e74a	-0.024158139
64	0xbcf0d389	-0.029397743
65	0x3b9a97db	0.0047178096
66	0x3caf0f71	0.021369668
67	0x3d992bdc	0.07479069
68	0xbc2895a0	-0.01028958
69	0x3d8c8282	0.0686083
70	0xbc858606	-0.016299259
71	0x34a50328	3.0735941e-07
72	0xbbd42df2	-0.0064752037
73	0x3d8b136a	0.06790812
74	0xbccae97a	-0.024769533
75	0xbd919f61	-0.07110477
76	0xbc06fa10	-0.0082383305
77	0xbd434f78	-0.04768321
78	0x3bbda224	0.005787151
79	0x3da83031	0.08212317
80	0xbd8f0914	-0.069841534
81	0xbc2c984d	-0.010534358
82	0xbd28820c	-0.041139647
83	0xbd631755	-0.055442173
84	0x3ba0db8e	0.0049089855
85	0x3cdd0184	0.026978262
86	0xbc0f3b8f	-0.008742227
87	0x3bafcb9a	0.0053648474
88	0xbc8f48fc	-0.017490856
89	0xbcdfed3e	-0.027334806
90	0x3b515a1f	0.0031944585
91	0xbd1d0f70	-0.0383448
92	0x35d07ca6	1.5533485e-06
93	0x3be7d348	0.0070747472
94	0xbd637fd6	-0.055541836
95	0x3cf1ceb4	0.029517509
96	0x3cbcbaad	0.023038233
97	0xbc22463e	-0.009904442
98	0xbbdf1737	-0.0068081873
99	0xbd0a67e4	-0.033790484
100	0xbc8e7b09	-0.017392652
101	0x3def7482	0.11692144
102	0x3d979658	0.07401723
103	0xbb0c3ec6	-0.002139972
104	0xbca8ac05	-0.020589838
105	0x3a1754ce	0.000577283
106	0x3d83287e	0.06404208
107	0xbb1f9c14	-0.0024354504
108	0x3ca27efc	0.019835941
109	0xbcbbfa3e	-0.022946473
110	0x3ca7aced	0.0204682
111	0xbd86d75c	-0.06584045
112	0xbd1d68a3	-0.038429867
113	0xbd67f38f	-0.05662876
114	0xbda6a8a3	-0.08137634
115	0xbdaf2406	-0.08551793
116	0xbd47d43f	-0.048786398
117	0xbd74c967	-0.059762385
118	0x3cf3533b	0.029702773
119	0xb556164a	-7.975365e-07
120	0x3a818c89	0.0009883802
121	0x3a0ce704	0.0005375
122	0x3d480c9f	0.04884016
123	0x3d67ffee	0.056640558
124	0xbcb51bdb	-0.02210801
125	0xbd7db79b	-0.061942678
126	0xbd74b67b	-0.05974434
127	0xbc862743	-0.016376143
128	0x3b21fd43	0.0024717606
129	0xbc11d3ed	-0.008900625
130	0xbb72b284	-0.0037032673
131	0xbcda920e	-0.026680972
132	0xbd257391	-0.040393416
133	0xbd26b516	-0.04070004
134	0xbd970674	-0.07374278
135	0x3d1f09ba	0.038827635
136	0xbb8c7b08	-0.0042871274
137	0x3bca2734	0.006169224
138	0x3d2369bb	0.039895754
139	0xbd7f7d21	-0.06237519
140	0xbd0f5e15	-0.035001833
141	0xbd2c98bf	-0.042137858
142	0x3db36f29	0.087614365
143	0xbd8588c5	-0.06520227
144	0x3d42c354	0.04754956
145	0xbca9ba2d	-0.020718658
146	0xbb07e6fe	-0.0020737047
147	0x3d5f2e53	0.054487538
148	0x3c01de75	0.007926573
149	0x3db7fec5	0.0898414
150	0xbc3317b2	-0.010930942
151	0xbd33234f	-0.043734845
152	0xbba5e2b4	-0.0050624255
153	0xbcd6eb57	-0.026235266
154	0xbd47a482	-0.04874087
155	0x3bb5b23a	0.005544928
156	0x3d369072	0.044571348
157	0x3b554b69	0.0032546169
158	0xbd2ad35b	-0.04170547
159	0xbb8d5a70	-0.0043137595
160	0x3ba8e8ac	0.00515469
161	0x3ce37245	0.027764449
162	0xbbc952b8	-0.006143894
163	0xbacaf529	-0.001548444
164	0xbcba1937	-0.022717101
165	0xbc0411e9	-0.008060911
166	0xbd217c50	-0.039425194
167	0x3d02057a	0.031743504
168	0xbd47dac1	-0.048792604
169	0x3bd647ee	0.0065393364
170	0xb833f175	-4.29018e-05
171	0x3d07e77c	0.033179745
172	0x3bbd4439	0.005775955
173	0xbb903d4a	-0.0044018375
174	0xbcafe10b	-0.021469614
175	0x3d4a3f71	0.04937691
176	0x3ae9be0c	0.0017833128
177	0xbac83349	-0.0015274073
178	0x3c491bc0	0.0122746825
179	0x3d3f0faa	0.046645798
180	0xbc9ff871	-0.019527646
181	0x3c951b9f	0.018201647
182	0xbd33f4b5	-0.043934543
183	0x3d75b6cf	0.059988793
184	0x3c88cbc8	0.016698733
185	0xbc6e2762	-0.014535757
186	0x3b45c559	0.0030177443
187	0x3ccb62c0	0.024827361
188	0xb2da3990	-2.5404717e-08
189	0x3caf2c4a	0.021383423
190	0x3c731b75	0.014838089
191	0x3a1b7e9f	0.0005931649
192	0x3bb65ca2	0.005565242
193	0x35781d6c	9.2430014e-07
194	0x3cdea905	0.027180204
195	0x36086ea1	2.0329974e-06
196	0xb4ab47e7	-3.1903548e-07
197	0x3ac58b1c	0.0015071365
198	0x3d1ac513	0.0377856
199	0x36baf88e	5.5721675e-06
200	0xbcdc3a18	-0.02688317
201	0x36a4d359	4.912185e-06
202	0xb5dab106	-1.6293786e-06
203	0xbd2d955b	-0.042378765
204	0x3c58773f	0.013212024
205	0x3a5d6afa	0.00084464217
206	0x3c45ff68	0.012084819
207	0xbccf3ba4	-0.025296994
208	0xbd07496e	-0.033029012
209	0xbcaba70e	-0.020953681
210	0x3c36fe37	0.011169008
211	0x3d42b312	0.047534056
212	0x3d1a37c4	0.03765084
213	0x3c222433	0.009896326
214	0xbaa0334b	-0.0012222318
215	0xb8133fd9	-3.5106994e-05
216	0xbcfa0bad	-0.030523146
217	0x3d818d16	0.06325738
218	0xbd4ab6b9	-0.049490664
219	0x3b822552	0.003971734
220	0xbd800010	-0.06250012
221	0xbd590d66	-0.052991293
222	0x3c6fd225	0.014637505
223	0x3d5dd9cb	0.05416278
224	0x3c6fa8f0	0.01462768
225	0x3c08687e	0.008325694
226	0x3d117e83	0.03552104
227	0x3cb1dc65	0.021711538
228	0x3cb40d44	0.021978982
229	0xbd6e1444	-0.058124796
230	0xbc0ceb2b	-0.00860099
231	0x3d8249c0	0.06361723
232	0xbd51a575	-0.051183183
233	0xbdb473c8	-0.08811146
234	0xbcfdaea6	-0.030967068
235	0x3e08c947	0.13358031
236	0xbb51688a	-0.003195318
237	0x3d3fa945	0.046792287
238	0x3d56148d	0.052265693
239	0x3d2cac9a	0.042156793
240	0xbcbb01d7	-0.022828026
241	0xbd685db9	-0.056730006
242	0x3b22b7ef	0.0024828871
243	0x3d374352	0.044741936
244	0x34d1f246	3.910556e-07
245	0xbd735acc	-0.059412763
246	0x3ce2a22f	0.027665226
247	0xbd43f235	-0.04783841
248	0x3cfd0700	0.030887127
249	0x3c356e75	0.011073698
250	0xbd054203	-0.032533657
251	0x3d0b2e2d	0.033979584
252	0x3cb197c8	0.02167882
253	0xbab6ba63	-0.0013941046
254	0xbdd98fb3	-0.106231116
255	0x3c2421de	0.01001784

linear.bias f4 [160]
0	0x3b48a2c1	0.0030614587
1	0x3a19d84b	0.0005868717
2	0xba033ebe	-0.0005006603
3	0x3c5cc09e	0.013473658
4	0x3bbedae8	0.0058244355
5	0xbbfa8d4d	-0.007646239
6	0x3c318d6e	0.010836942
7	0xbc39693d	-0.011316595
8	0x3ae3b4a9	0.0017372567
9	0x3c81d5f6	0.015849095
10	0xbc6c4665	-0.01442108
11	0x3c7252d9	0.01479026
12	0xbc06a356	-0.008217653
13	0x3b757132	0.0037451503
14	0xbc867a3a	-0.016415704
15	0x3c069ddb	0.008216347
16	0xbc32f80c	-0.010923397
17	0x3bc65ef0	0.006053798
18	0xbc1b59ad	-0.00948183
19	0xba9b96d6	-0.0011870514
20	0x3c63a50a	0.013894329
21	0x3c91dda4	0.017805882
22	0xbadd5aa2	-0.0016887973
23	0x3c12b2f1	0.008953796
24	0xbc21015c	-0.009826984
25	0x3bb787a9	0.0056008887
26	0xbb9751c0	-0.0046178997
27	0x3b2635e3	0.0025361709
28	0x3c67e8e9	0.014154651
29	0x3c574973	0.01314007
30	0xbb870cfe	-0.004121422
31	0xbc534d5b	-0.012896861
32	0x3c45b705	0.012067561
33	0x3baf14e6	0.0053430675
34	0xbbb0a97f	-0.0053912993
35	0xbc75112b	-0.014957706
36	0xbc354cbd	-0.011065659
37	0xbbe3287d	-0.006932317
38	0xbbff3a02	-0.0077888975
39	0x3c7e4b14	0.01552083
40	0x3c16d044	0.009204928
41	0xbc34d9b5	-0.0110382335
42	0xbb898b32	-0.0041975016
43	0x3c071453	0.008244592
44	0xbc041fd6	-0.008064231
45	0x3b9aac9f	0.004720285
46	0x3c0ca016	0.008583089
47	0x3b27701f	0.0025549007
48	0xbc076b8e	-0.008265389
49	0x3c1b1c8e	0.009467257
50	0x3c1c8fd9	0.00955578
51	0x3bda56c8	0.006663177
52	0x3c756a63	0.014978978
53	0xbc67a770	-0.014139041
54	0xbbf5596d	-0.007487467
55	0xbc64b7f3	-0.013959873
56	0xbc1df3fe	-0.009640692
57	0xbb8cbe99	-0.004295182
58	0xbc0535b9	-0.008130484
59	0xbb8ab544	-0.0042330343
60	0x3c830499	0.015993403
61	0x3c1631d3	0.009167152
62	0xba26d6ec	-0.00063644233
63	0x3c5fbfd3	0.013656574
64	0x38b932da	8.830959e-05
65	0xbbe2e2ec	-0.006924024
66	0xbc263925	-0.01014546
67	0x39c35076	0.00037253246
68	0xbc45c3e1	-0.012070627
69	0x3c03e17b	0.008049364
70	0x3c637332	0.013882445
71	0x3c5feaba	0.013666803
72	0xbaa93920	-0.0012910701
73	0xbc039fb0	-0.008033678
74	0x3bed74a0	0.007246569
75	0xbc2e5a2d	-0.010641617
76	0xbc5cd88d	-0.013479364
77	0x3c3cf501	0.011533023
78	0x3c073bde	0.00825402
79	0x3b9f9b67	0.0048708203
80	0x3c49b247	0.012310571
81	0x3be4f5bf	0.006987303
82	0xbbc5f930	-0.0060416684
83	0xbc0fa175	-0.008766522
84	0xbba4c6c2	-0.0050285766
85	0xbc48f4b7	-0.012265376
86	0x3bbae591	0.005703636
87	0x3c6c7332	0.014431762
88	0xbb831fc5	-0.00400159
89	0xbb1374db	-0.0022500071
90	0x3bb8be46	0.0056379167
91	0x3c3decb1	0.011592076
92	0xbbe3b4ef	-0.006949059
93	0xbb06a416	-0.002054458
94	0xbc127429	-0.008938828
95	0xbae7b549	-0.0017677929
96	0x39232dd9	0.00015561971
97	0x3ba0a52b	0.004902502
98	0x3c1db6bd	0.009626088
99	0xbbc4639a	-0.0059933187
100	0x3c0ac938	0.008470826
101	0xbbbcc729	-0.0057610464
102	0x3bf08ed0	0.0073412433
103	0xbc105ae9	-0.008810737
104	0xbc4b3fee	-0.012405379
105	0x3bf9fff3	0.0076293885
106	0xbb697754	-0.0035624104
107	0x3c703b25	0.014662539
108	0x3c55522a	0.013020078
109	0xb7597f4d	-1.2963847e-05
110	0x3c3755fa	0.011189932
111	0xbbfa29fa	-0.0076343985
112	0xbb0b1ac9	-0.0021225682
113	0x3c0e636e	0.008690698
114	0xbb7eb2fc	-0.0038864007
115	0xbaa062f3	-0.001223652
116	0x3beccaa6	0.007226306
117	0xbc196dd5	-0.009364565
118	0xbb127c56	-0.0022351942
119	0x3c57da8c	0.013174664
120	0x3b9c0f26	0.004762548
121	0xbba7837d	-0.00511211
122	0x39bfc2a0	0.00036575366
123	0x3c036ab8	0.008021049
124	0x3c18a24a	0.0093160365
125	0x3c1687e9	0.009187677
126	0xbba6a23a	-0.005085257
127	0xbc05e516	-0.008172294
128	0xbc3669b2	-0.011133598
129	0xbaeb9918	-0.0017974703
130	0x3c572b2f	0.013132854
131	0xbc2f8fee	-0.010715468
132	0x3c868732	0.016421888
133	0x3bf66b78	0.0075201355
134	0x3c172614	0.009225387
135	0x3c6e9412	0.01456167
136	0xbc228f47	-0.009921855
137	0xbc0bc1e5	-0.008530115
138	0xbbb6eb10	-0.005582221
139	0x3c44c961	0.012010903
140	0x3c65c0de	0.014023034
141	0xbb3c89a0	-0.0028768554
142	0xbbf283be	-0.007400959
143	0x3bc79eff	0.006091952
144	0xb99fc723	-0.00030475212
145	0x3c3740da	0.011184895
146	0xbb0f1241	-0.0021830949
147	0xba912a25	-0.0011075182
148	0x3c18a7b9	0.009317332
149	0x3a4215bf	0.0007403753
150	0x3ac1faa7	0.0014799432
151	0xbbb944ae	-0.005653939
152	0x3a0db3b7	0.0005405503
153	0x3b86eede	0.0041178307
154	0x3c42f3d3	0.011898953
155	0x3c45df6c	0.012077194
156	0x3b9ed52d	0.00484719
157	0xbc3f6dac	-0.011683863
158	0xbc61a91c	-0.013773229
159	0xbb75aab9	-0.0037485792
