CDLG/best_log.pth (torch, 2983 bytes, 2 tensors)

fc.weight f4 [3, 160]
000000 98 1f 2c 3d e4 2f 04 be 8d 82 c2 bd 39 b8 3e 3e
       0.042022318 -0.12908894 -0.09497557 0.18624963
000010 ff bb 5c be 6b 5c 70 be 12 a3 2d be 0d 69 30 3e
       -0.2155609 -0.23472755 -0.16956738 0.17227574
000020 e5 8d 82 3d e4 b6 8e 3e 03 aa 45 be 34 cb 76 be
       0.063747205 0.2787391 -0.19303136 -0.24100953
000030 b2 12 b1 3e e7 4d 06 3e c2 29 3a 3d ca 5d 93 be
       0.34584576 0.13115655 0.04544998 -0.28782493
000040 a3 3f 40 3e df 4f 6e be f1 9b 83 3e fe cd 89 3e
       0.18774275 -0.23272656 0.2570491 0.26914972
000050 5e 29 34 3e 48 8e 0c be 44 1c 35 be fc 3c 35 3e
       0.17593905 -0.13726151 -0.17686564 0.17699045
000060 06 2c b6 3e ee a9 27 be 1e 8e bb 3d 2f ae 40 be
       0.35580462 -0.16373417 0.09157966 -0.18816446
000070 55 f6 15 3e 97 61 23 3e ee 0c f8 bc 9d 08 d1 bd
       0.1464475 0.15955196 -0.030279603 -0.10206721
000080 26 ec 5e 3e bd c0 ac bd 56 a5 38 3e 39 05 55 3e
       0.21769771 -0.084351994 0.1803182 0.20802774
000090 7a 28 dc bd 17 e4 ae be 5c 93 63 3e c9 02 63 be
       -0.10749908 -0.34158394 0.22224182 -0.22169031
0000a0 5e 76 6a 3e 72 ce 34 3e 6b 25 b4 3d bc 3f 76 3e
       0.22896716 0.17656878 0.087961994 0.2404775
0000b0 db 88 0b be 57 29 78 3e 2c 39 33 3d 41 84 9c 3d
       -0.13626425 0.2423452 0.043755695 0.07642413
0000c0 41 7b 69 be 5a c5 ed 3d 2f 96 7b be a6 b3 bb 3d
       -0.22800924 0.116099074 -0.24569009 0.091651246
0000d0 6b 91 05 be 75 30 b8 bc 13 8d 94 3e 18 ee a3 be
       -0.13043754 -0.022484044 0.2901388 -0.3201759
0000e0 eb 99 48 bd 6a 81 41 be 97 d7 05 3e 9b 5d aa 3e
       -0.048974913 -0.18897024 0.13070522 0.3327454
0000f0 6e 6a d6 bd 76 72 3a be 3b 86 42 3e f0 38 15 3e
       -0.104695186 -0.18207726 0.18996517 0.14572501
000100 6e e1 75 3e b1 48 a6 be 60 94 35 3e e3 07 5a 3e
       0.24011776 -0.32477334 0.17732382 0.21292071
000110 8d 40 81 3e 8a 97 21 be 79 7c 67 be 45 80 80 be
       0.2524456 -0.15780464 -0.22606076 -0.25097862
000120 d1 96 47 be 5a f0 36 be 48 54 32 be 19 9a 39 be
       -0.19491126 -0.17865124 -0.17414963 -0.1812519
000130 64 75 bd 3d 07 70 17 be 59 3e 99 be b1 53 23 3e
       0.09250906 -0.14788829 -0.2993038 0.15949894
000140 65 ff a2 be fc 39 a7 3e f5 9e 6e 3e e2 a2 51 be
       -0.31835476 0.32661426 0.23302825 -0.20472291
000150 56 01 a3 be bc db 76 3e ca b1 34 3e cc f4 87 3e
       -0.31836957 0.2410726 0.17645946 0.26553953
000160 6b 12 47 3e 37 4a 8c 3e 90 ba 44 3e 54 29 3a be
       0.1944062 0.2740037 0.19211793 -0.18179828
000170 ba 18 d7 bd ad 8a b2 3d 5a b6 7f 3d 0b 30 59 be
       -0.10502763 0.087178566 0.062429763 -0.21209733
000180 85 3c 37 be fc ae a0 3e 98 71 30 be 03 84 91 be
       -0.1789418 0.31383502 -0.17230833 -0.2842103
000190 24 cb b0 bd c7 b4 4e be e3 0b d1 3e 47 59 dc bd
       -0.08632496 -0.20186149 0.4082938 -0.10759216
0001a0 32 86 87 3d f6 59 7e 3e ef 70 b4 bd b7 ca 63 be
       0.066173926 0.24839005 -0.08810603 -0.22245298
0001b0 a2 80 23 3e 6b 72 29 3d 45 77 f6 bd fa f2 1c 3e
       0.15967038 0.041368883 -0.120344676 0.15327063
0001c0 3f 68 37 3e 7f 39 1e be c3 87 2e 3e ca c2 45 be
       0.1791086 -0.1545162 0.17043976 -0.19312587
0001d0 ad 19 64 3e 6c ba 99 be 5a 7e 50 be 64 0a df bd
       0.2227542 -0.3002504 -0.203607 -0.10890654
0001e0 7b 02 36 be e1 bc 2c be 01 13 84 be dc f8 58 3e
       -0.17774384 -0.16868927 -0.2579575 0.21188682
0001f0 a1 8e 8f be 16 0a 1f 3e 5a b1 85 3e 19 d6 b0 3e
       -0.28038505 0.15531191 0.2611187 0.34538344
000200 5d ee 67 be 2c 80 58 3d 62 1c 85 be 42 37 15 3e
       -0.22649522 0.05285661 -0.25998217 0.1457186
000210 b1 d5 91 3d 3c c5 4c 3e 88 5a 70 be 9c fe b5 3e
       0.071208365 0.19997114 -0.23472035 0.35545814
000220 78 84 1d be ef b6 85 be bf 26 16 3e 9a 18 9c 3e
       -0.15382564 -0.2611613 0.14663218 0.3048752
000230 4d c7 ac be a4 d0 4a 3e 68 ce 9d 3e 70 0d c4 bd
       -0.33745804 0.19806153 0.30821538 -0.095728755
000240 59 d9 3d 3e f1 cc a7 3e 05 3c 21 be 4d d6 99 3e
       0.18539943 0.32773545 -0.15745552 0.3004631
000250 38 30 c7 3e d0 92 75 3d 52 b3 db bd 3f af 53 3e
       0.38903975 0.059954464 -0.10727562 0.2067232
000260 d0 a5 94 be fc 9b b1 be 63 75 7f be 32 74 75 bd
       -0.29032755 -0.3468932 -0.24947123 -0.059925266
000270 73 f1 5e bc e0 5e 2e be 32 49 e8 bc f4 41 8d 3e
       -0.013607371 -0.1702838 -0.028355215 0.2758938
000280 3d 9b a8 3e 0e 21 98 3e 67 6e e3 bd d9 c4 c4 3e
       0.32930937 0.2971272 -0.11105042 0.38431433
000290 f1 ab 6d 3e 54 8e 32 3e 24 b4 48 3d be 40 50 be
       0.23210122 0.17437106 0.04899992 -0.20337197
0002a0 18 88 50 be 23 75 96 3e 4a ab a5 3e 73 98 97 3e
       -0.20364416 0.29386243 0.32357246 0.29608497
0002b0 b4 65 52 bd 2b cd 76 be ed 64 a3 3e 48 62 96 3d
       -0.051366523 -0.24101703 0.31912938 0.073429644
0002c0 d0 73 34 be ca 97 36 3e 30 1e 3d 3e 0c ca be be
       -0.17622304 0.1783134 0.18468547 -0.37263525
0002d0 c3 90 7a bd 89 47 9b 3e d6 16 82 be 2e c2 a0 be
       -0.06117321 0.30328014 -0.25408047 -0.31398147
0002e0 f9 1d 0c 3e f5 f1 1e 3e e4 21 13 3e 67 ba 14 3e
       0.13683309 0.15521987 0.14368397 0.14524232
0002f0 11 40 04 3e 4b 39 7f 3e 1e f5 61 be 37 bb 4a be
       0.12915064 0.249242 -0.22066161 -0.1979798
000300 bb 5e 55 be b0 c1 eb 3d 3c 89 d3 bd 27 23 a5 3d
       -0.20836918 0.11511552 -0.1032891 0.080633454
000310 f2 23 b0 be d4 bb 37 3e 69 04 7e be 13 58 8f 3e
       -0.34402424 0.17942744 -0.2480637 0.27996883
000320 93 45 a0 3d 76 72 a7 3e 67 52 a6 3e f0 dc 24 3e
       0.0782577 0.32704514 0.32484743 0.16099906
000330 80 8e b4 be e0 99 4d be 23 95 9a 3e 37 8f a6 be
       -0.3526497 -0.2007823 0.30191907 -0.3253114
000340 1e 37 18 3e cc 55 49 3e 60 34 57 bd a4 6a 85 3e
       0.14864776 0.19661635 -0.052540183 0.26057923
000350 71 76 88 3e 87 8b 2f be da eb 30 3c dc 45 b6 3e
       0.26652864 -0.17143069 0.010798419 0.35600173
000360 a6 02 3e 3e 6a 2d 89 be a1 a4 59 3e 85 08 bf be
       0.18555698 -0.2679246 0.21254207 -0.37311187
000370 18 d3 70 be 13 74 a7 be d9 47 c6 3e 80 3e db bd
       -0.23518026 -0.32705745 0.3872669 -0.1070528
000380 23 7e b4 3c f4 bf 69 be 24 42 a5 be b9 9b 5a 3e
       0.022032803 -0.2282713 -0.32277024 0.21348466
000390 d9 04 01 be 7d b9 ac 3e 65 07 58 3e 88 45 4a 3e
       -0.12599505 0.33735266 0.21096571 0.19753087
0003a0 4a 0e 78 be 5f 44 3a 3e 08 36 91 3e 54 0c b3 3e
       -0.24224201 0.18190144 0.28361535 0.34970343
0003b0 23 25 a0 3e a6 77 b6 3e 5d 06 5d be 1e c6 3b 3e
       0.31278333 0.3563816 -0.21584459 0.18337294
0003c0 ce 57 90 3e 2a 78 64 be 6b 49 23 3e 0f 47 e9 3d
       0.2819199 -0.22311464 0.15945975 0.113905065
0003d0 66 ec 7c 3e 15 ab e4 be fd b2 61 be a7 53 67 be
       0.24699554 -0.44661775 -0.22040935 -0.22590505
0003e0 9f 6a 6e be 5b 6e 3a be 58 4a 8d be 93 04 88 3e
       -0.2328286 -0.1820616 -0.27595782 0.2656599
0003f0 ba 24 be be 73 db 5f 3c 88 ff 58 3e e4 36 f3 3d
       -0.37137395 0.013663161 0.21191227 0.11875704

fc.bias f4 [3]
000000 36 93 a7 be 06 8c 94 3e 53 b7 3d 3e
       -0.327295 0.2901308 0.18526964
