CDLG/best_cdg.pth (torch, 276391 bytes, 2 tensors)

linear.weight f4 [48, 1433]
0	0xbc503671	-0.012708292
1	0xbbe5b5c3	-0.007010193
2	0x3beac12f	0.0071641426
3	0xbaa56b9a	-0.0012620569
4	0xbd035d26	-0.032071255
5	0xbc439d02	-0.011939289
6	0xbb4e735c	-0.0031501865
7	0x3a9d1478	0.001198425
8	0xbc6dd036	-0.014514973
9	0xbd6c6fcc	-0.057723805
10	0x3ca3d081	0.019996883
11	0x3c3faf4d	0.01169951
12	0x3bd3df15	0.0064658024
13	0xbd0a3626	-0.033743046
14	0xbc8f6ed8	-0.01750891
15	0xbc538f8e	-0.012912644
16	0x3a9c7b2e	0.0011938566
17	0xbd0b6dee	-0.034040384
18	0xbbf06392	-0.0073360885
19	0xbd626fbf	-0.05528235
20	0x3c773ef7	0.015090696
21	0x3cb51461	0.022104444
22	0xbd01c5a6	-0.031682633
23	0xbd45154c	-0.048116013
24	0x3d5ef33f	0.054431196
25	0x3cec6f89	0.028861778
26	0x3c4a7353	0.012356597
27	0x3c527b2a	0.012846747
28	0x32dc605f	2.5655195e-08
29	0x3c8b3900	0.016994953
30	0x3cee7447	0.02910818
31	0xbc0d89a1	-0.00863877
32	0xbb5e6283	-0.003393323
33	0xbca12cba	-0.019674648
34	0x3b0666cb	0.0020508047
35	0xbcab2c94	-0.02089528
36	0x3d04e908	0.0324488
37	0x3c2c5517	0.010518334
38	0xbd558ce7	-0.052136328
39	0x3c392c59	0.011302077
40	0xbba8c8a2	-0.0051508704
41	0xbb361ff6	-0.0027790046
42	0x3c395bbc	0.011313375
43	0xbc8d723a	-0.017266382
44	0xb88aef00	-6.62487e-05
45	0xbcc264c0	-0.023729682
46	0xbc7179c1	-0.014738501
47	0xb1676d85	-3.3677179e-09
48	0x3c685361	0.014180035
49	0x3d0e5f4e	0.03475886
50	0x3d489b1e	0.048976056
51	0xbcc677b8	-0.024227008
52	0x3b88f8b6	0.0041800393
53	0x354985be	7.5072955e-07
54	0x3cc0a950	0.023518234
55	0xbcd5a4e1	-0.026079597
56	0x3ab0c883	0.0013487492
57	0xbbfe1c5b	-0.007754845
58	0xbc8768da	-0.01652949
59	0xbd110d3a	-0.035413004
60	0x3487540d	2.5206865e-07
61	0xbcd62c2d	-0.026144112
62	0xbccdf6ae	-0.02514204
63	0xbd885a4c	-0.06657848
64	0xbb83eb3c	-0.004025845
65	0x3c733dde	0.014846293
66	0xbcf84fb4	-0.030311443
67	0xbd9da57e	-0.07697581
68	0xbcd075a5	-0.025446722
69	0x3c1c2125	0.009529387
70	0x3d43dfb0	0.047820747
71	0x3717ce80	9.048381e-06
72	0xb5270ae1	-6.222818e-07
73	0xbb269143	-0.0025416173
74	0x3cfe5495	0.031046191
75	0x3b16ac91	0.0022991041
76	0xbd1c0f75	-0.03810068
77	0xbb442750	-0.0029930659
78	0x3ca8b653	0.020594751
79	0xbc769a69	-0.015051463
80	0x3d03b723	0.032157075
81	0xbce029a2	-0.027363602
82	0x3c30f42c	0.010800403
83	0x3c9c1178	0.019051298
84	0xbd09401c	-0.033508405
85	0xbd46d6ba	-0.048544623
86	0x3b9180ab	0.0044403872
87	0x3c343413	0.010998744
88	0x358d8275	1.0543287e-06
89	0xb5573335	-8.016826e-07
90	0x3c59d1c7	0.013294644
91	0x3d4e5ac0	0.050379515
92	0xbcedaeb7	-0.029013975
93	0xb404db64	-1.2373272e-07
94	0x3addf874	0.0016935007
95	0xbb9cf103	-0.004789473
96	0x3c958ab3	0.018254614
97	0x3c4fa25c	0.012672987
98	0x3d322237	0.04348966
99	0xbc4e565b	-0.012593831
100	0xbc747120	-0.014919549
101	0xbd1361a7	-0.0359818
102	0xbb14f93e	-0.0022731568
103	0xbc89ccfd	-0.016821379
104	0xbc882abf	-0.016621945
105	0x3cf36d5a	0.029715229
106	0xbc8b667d	-0.017016644
107	0xbcd522a2	-0.02601749
108	0x3b31d80b	0.0027136828
109	0xbc65fbd4	-0.014037091
110	0xbc9a80d3	-0.018860256
111	0xbd1bf267	-0.03807297
112	0x3b55e15d	0.0032635548
113	0xbaab4a72	-0.0013068451
114	0xbd70c2fc	-0.0587797
115	0xbbabe238	-0.0052454732
116	0xb58f9234	-1.0696881e-06
117	0x3d272d2b	0.04081456
118	0xbd266cf8	-0.040631264
119	0xbd00297e	-0.03128957
120	0xbcb6bf3a	-0.02230798
121	0x3c3d7eea	0.011565903
122	0x3cc24f63	0.023719495
123	0x3a69b9f9	0.0008915957
124	0xbc61c9f4	-0.0137810595
125	0xbd2a3d50	-0.04156238
126	0xbd3ab289	-0.04558042
127	0x3d079a3e	0.03310608
128	0xbd4446b6	-0.047918998
129	0x3cf7ac63	0.030233568
130	0x3bb1e10e	0.00542844
131	0xbcfb97ac	-0.030711971
132	0x3c2d4655	0.0105758505
133	0xbc9a9f5d	-0.018874818
134	0xbd258cf0	-0.04041761
135	0xbcd145d6	-0.025545996
136	0xbcf3e9a4	-0.029774494
137	0x3c6f80ae	0.014618082
138	0xbd6dd6dc	-0.058066234
139	0x3d04205b	0.03225742
140	0xbc0542b0	-0.008133575
141	0xbaca4072	-0.0015430583
142	0x3c86eb38	0.016469583
143	0xbc53e505	-0.0129330205
144	0xbc9ee6c8	-0.019397154
145	0xbb23c635	-0.0024989967
146	0xbd08d857	-0.033409443
147	0x3c8a869e	0.016909894
148	0xbbda9894	-0.0066710208
149	0xbc8b307e	-0.016990896
150	0xbccc42e7	-0.024934245
151	0x3a02aba4	0.0004984683
152	0x3d308361	0.043094043
153	0xbc80e97d	-0.015736336
154	0xbc2c44f0	-0.010514483
155	0x3ce90f20	0.028449595
156	0xbd2352e6	-0.03987398
157	0xbc5ff105	-0.013668303
158	0xbc9a33e7	-0.018823577
159	0xbbf96a48	-0.0076115467
160	0xbd2787a8	-0.040900856
161	0x3c2327d4	0.009958226
162	0x3c6a611a	0.014305377
163	0x3b396f53	0.0028295114
164	0x3b953f35	0.004554654
165	0xbc42c1c8	-0.011887021
166	0xb4763a72	-2.2931798e-07
167	0x3d44b84b	0.048027318
168	0xbc9797f7	-0.01850508
169	0xbd1b5f31	-0.03793258
170	0xbcdcc458	-0.026949093
171	0xbd19cb69	-0.037547503
172	0x35fc1b05	1.8783327e-06
173	0xbbdfabe5	-0.0068259113
174	0xbcc1fb75	-0.023679474
175	0xbd0015f5	-0.03127094
176	0xbbb60533	-0.005554819
177	0xbc2a5cdd	-0.010398117
178	0xb3ec3b3b	-1.100038e-07
179	0x3b06d230	0.002057206
180	0x3b4a2560	0.003084503
181	0xbcff16e6	-0.031138849
182	0x3d0e3608	0.034719497
183	0x3caccbd7	0.021093292
184	0x3cb849a7	0.022496058
185	0xbbb53caa	-0.0055309134
186	0x3bbcf2b1	0.0057662358
187	0xbcb89f6c	-0.022536956
188	0xbcf4c74f	-0.029880194
189	0x3b02bac1	0.001994774
190	0xbd13e7c8	-0.036109716
191	0xbce9339a	-0.028466988
192	0xbcaaf718	-0.020869777
193	0x317e0587	3.6965007e-09
194	0xbcf15312	-0.029458556
195	0x3c895d90	0.016768247
196	0xbd04ea0f	-0.03244978
197	0x3d452346	0.048129342
198	0xbca1307d	-0.019676441
199	0xbccc8a76	-0.024968367
200	0x3d40eb32	0.0470993
201	0xbd826cbb	-0.06368395
202	0xbcd5eb85	-0.026113281
203	0xb5b6c841	-1.3618338e-06
204	0xbcf8fb58	-0.030393288
205	0x3d046201	0.032320026
206	0x3c2c2756	0.010507425
207	0x34f74d5b	4.606362e-07
208	0x3cf1fb5f	0.029538808
209	0xbcfa23e0	-0.030534685
210	0xbcec41cf	-0.028839974
211	0x3c498810	0.012300506
212	0xbd2c55ab	-0.042073887
213	0x3b2bab2a	0.002619455
214	0x3c474150	0.012161568
215	0x3cb2dc8d	0.021833682
216	0xbb981b14	-0.0046419
217	0xbc26fc49	-0.010191985
218	0xb4f7dbf5	-4.6167375e-07
219	0x3c9ec5a2	0.019381348
220	0x3d9633e7	0.07334118
221	0x3c883ded	0.016631091
222	0x3c592807	0.013254172
223	0x3c0c15dc	0.008550134
224	0xbc19a9ec	-0.009378891
225	0xbc953ea9	-0.018218355
226	0x3c4a63ba	0.012352878
227	0xbd0188e4	-0.03162469
228	0x3c7af7b4	0.015317846
229	0xbbf3ab2b	-0.0074361763
230	0xbb950174	-0.0045472924
231	0xbc4de311	-0.012566344
232	0xbd325805	-0.043540973
233	0x3c845a3f	0.016156314
234	0x32c0c828	2.2442762e-08
235	0xbc826a29	-0.015919762
236	0xbc2753e3	-0.010212871
237	0xbc34ef10	-0.011043325
238	0x3bc5fc22	0.0060420195
239	0xbc6ace7e	-0.014331458
240	0xba9f5d85	-0.0012158608
241	0x3c68165b	0.014165486
242	0x3c48e7ea	0.012262324
243	0x3c977f2d	0.01849326
244	0x3d6a8b34	0.05726166
245	0x3b394435	0.0028269414
246	0x3c8cc778	0.017184958
247	0xbbc5be1d	-0.006034626
248	0xbc9a8106	-0.018860351
249	0x3c11acfd	0.008891341
250	0xbd192318	-0.037386984
251	0xbd9890ef	-0.07449519
252	0xbd5af07e	-0.053452007
253	0x35023a5b	4.851369e-07
254	0x3d77a314	0.060458258
255	0x3d432f3e	0.047652476

linear.bias f4 [48]
0	0x3bf52a23	0.0074818297
1	0xbb41728b	-0.0029517736
2	0x3bf035cf	0.0073306332
3	0x3b2b084e	0.002609748
4	0xbbf92517	-0.0076032984
5	0x3bc8f382	0.006132544
6	0x3b9a3524	0.004706042
7	0x3b4b1ed7	0.0030993724
8	0x3b7a4a9d	0.0038191446
9	0xbbb63cea	-0.0055614607
10	0x3b695918	0.0035606083
11	0x3bd5ca48	0.006524358
12	0xbb75d9e2	-0.0037513901
13	0xbc0005dc	-0.007813897
14	0x3beedff4	0.007289881
15	0xba718be6	-0.0009214267
16	0xbc02d9d9	-0.007986509
17	0xba94642a	-0.0011321355
18	0x39f5a153	0.00046850237
19	0xbb70bdf4	-0.0036734315
20	0xbbb7d7a9	-0.0056104255
21	0x3bde55d7	0.0067851353
22	0xbb1b4fb5	-0.0023698632
23	0xbbf6ce90	-0.0075319484
24	0x3bbc91e4	0.005754696
25	0xba439e8c	-0.0007462285
26	0xb8e72978	-0.000110226625
27	0xbc13d2f1	-0.00902246
28	0xba5fcca8	-0.0008537271
29	0xbb2935df	-0.0025819463
30	0xbbae3482	-0.005316318
31	0x3b7aeab7	0.0038286874
32	0xbbf5410e	-0.0074845618
33	0xbbbe8d5b	-0.0058151907
34	0xbb7a6ed1	-0.0038213024
35	0x3b9360f6	0.0044976426
36	0x3bf160bc	0.007366268
37	0xbbb7493f	-0.0055934484
38	0xb9954a13	-0.00028474684
39	0x3bad0ff7	0.005281444
40	0xbb502dce	-0.0031765583
41	0xbbd57d25	-0.0065151625
42	0x3ba12ace	0.004918433
43	0xbc0c86aa	-0.008577028
44	0x3a99cc3b	0.0011733839
45	0x3a687fd9	0.00088691484
46	0xbbd429b7	-0.0064746994
47	0x3b9e5196	0.004831503
